university_admission_chatbox_project_backend/data.pth (torch, 4991 bytes, 6 tensors)

l1.weight f4 [8, 54]
000000 df 27 e4 bd d8 2c d3 bd 99 53 ba 3c 2f e4 d8 bd
       -0.11140417 -0.10311288 0.02274494 -0.105903976
000010 f6 3b 1e 3d ab ab f7 bd dc 86 6c 3d 96 f5 b1 bc
       0.038631402 -0.1209329 0.0577458 -0.02172355
000020 71 a8 eb 3d 42 89 cb 3d df 49 ca 3d d3 b4 af bd
       0.11506737 0.09938289 0.09877371 -0.08579411
000030 44 c9 83 3c e5 ac da bd 9e 5f a7 3d af b9 7d 3d
       0.016087182 -0.10677508 0.081725344 0.06194466
000040 1c b0 4d bc fd 07 cd 3d ad d7 30 3c ac 97 a1 3d
       -0.012554195 0.10011289 0.010793609 0.07890257
000050 28 14 e8 bd 1d 4a 98 bc 46 2f 8b 3d c5 dc 08 3d
       -0.113319695 -0.018590027 0.06796126 0.033413667
000060 99 fb a2 3d 7e bf 81 bd 18 3b f9 bd ee 4d b5 bd
       0.07958145 -0.06335352 -0.12169474 -0.088527545
000070 c4 5a cf 3d fa 12 d5 3d 19 95 da 3b 2a ce 09 3c
       0.10124734 0.1040401 0.006670606 0.00841097
000080 df 76 e0 3d 27 0e d2 3d 65 ec b6 bc 48 02 bf bd
       0.10960173 0.102566056 -0.022329519 -0.09326607
000090 0b bd 1c bd b1 b9 04 bc 54 3b d0 3c 6f d9 ed bd
       -0.038266223 -0.008100913 0.025418915 -0.11613738
0000a0 27 26 f1 3d 9b 70 bd 3d 0f f5 c6 bd 86 45 f2 3c
       0.11774855 0.092499934 -0.0971471 0.029574167
0000b0 3b 14 25 bb e3 42 f9 bd 07 8b 88 3d c0 6b 8a 3d
       -0.002518906 -0.12170961 0.06667142 0.06758833
0000c0 62 29 d6 bd 5f 89 dd bd a6 96 02 be e5 8e e8 3d
       -0.10457112 -0.10817217 -0.1275278 0.1135538
0000d0 60 78 58 3d 2f 8b f4 bd c8 1d 6d be 96 2c 3a be
       0.052849174 -0.1194061 -0.23155892 -0.1818107
0000e0 63 e1 62 be 22 95 d5 3e 4e e2 88 3e 0b a1 04 bf
       -0.2215629 0.41715342 0.26735157 -0.5180823
0000f0 97 2d de bc 01 00 98 3b 4f e3 cf be 7b 4c 8b bd
       -0.027121348 0.0046386723 -0.4060311 -0.06801697
000100 0f 93 e9 3e ba 7f 8f be e9 dd 31 3e a1 83 a7 be
       0.4562001 -0.28027135 0.17369808 -0.32717612
000110 3a 9b c5 bd b6 4a 4e bc 0f 30 e2 3e 35 60 09 bf
       -0.09648748 -0.012591055 0.4417729 -0.53662425
000120 49 4d 3d 3e d2 c6 13 3f 75 a7 62 be 56 bd 2b 3f
       0.18486513 0.5772525 -0.22134192 0.6708578
000130 32 00 25 3f b7 23 15 3f 96 93 86 bd 24 92 01 3f
       0.64453423 0.5825762 -0.065711185 0.5061362
000140 58 a2 ad 3e 61 9f a8 be 4a b1 9c 3d 80 8f a9 be
       0.3391292 -0.32934096 0.07651003 -0.33117294
000150 a8 5f b7 be c5 ac 34 be b3 13 07 be 05 55 7d be
       -0.35815167 -0.17644031 -0.13191108 -0.24739464
000160 02 4b b5 bd 3b 29 32 be d7 e8 96 3c 59 cd 9b be
       -0.08852197 -0.1739854 0.018421574 -0.30430105
000170 d3 2d 06 3e 8c 12 8f bd 0d bf 31 be 65 b0 c6 3e
       0.13103418 -0.069859594 -0.17358036 0.38806453
000180 9e 43 88 be f8 61 99 3d 66 dc b6 be c6 93 7c bd
       -0.26614088 0.07489389 -0.35715026 -0.061664365
000190 d5 5a 0b bf f4 3f bb bd fe 47 94 3e 21 1d c5 3e
       -0.54435474 -0.091430575 0.28961176 0.38498786
0001a0 0f 76 3e be 66 c6 82 3e 36 f6 6b bd 49 b5 fe 3d
       -0.18599723 0.2554199 -0.057607852 0.12436921
0001b0 ac 8d 11 3e 32 2a ad 3c a8 fe 6f 3e c4 ac e7 3e
       0.142142 0.021138284 0.23436987 0.45248997
0001c0 1d ca b5 3e 6c 6e 0a 3d 5a 5b 80 3e 53 2e 46 bc
       0.35505763 0.033796713 0.25069696 -0.0120960055
0001d0 96 54 fe 3d 0f 39 87 3d 62 df 10 3f dd 48 c4 3e
       0.12418477 0.0660268 0.56590855 0.3833684
0001e0 ca 44 84 bc 07 0f d1 3e d5 0b 26 3e 5e 83 a9 3e
       -0.016146082 0.40831777 0.16215451 0.33108038
0001f0 4a d6 07 3f 94 b4 bb 3e b5 3b 87 be e0 80 d4 3e
       0.53061354 0.36661208 -0.2641274 0.41504574
000200 b0 7a a5 3d f6 0d e7 3e d0 88 24 3f 20 0e 2c 3f
       0.080800414 0.4512784 0.6427126 0.67209053
000210 03 60 9a 3e 4c 0a f6 3e 2e 61 cc be c0 b9 f6 3d
       0.30151376 0.4805473 -0.39917892 0.12047148
000220 e8 f3 8b be 12 3b 3c 3d a4 4f 63 3e 9d 7d a0 3e
       -0.27334523 0.04595477 0.22198349 0.31345835
000230 43 e8 a3 3d 97 7b 62 3e e2 df 06 3e d2 39 7f 3e
       0.08003285 0.22117458 0.13171342 0.249244
000240 43 fd 2c be f4 a3 1c 3d e0 b5 c9 3d cc e5 d3 3d
       -0.16893487 0.038242295 0.09849143 0.10346565
000250 5a 19 72 3e f6 e0 f7 be 1d 17 6b 3e a9 19 64 bd
       0.23642483 -0.4841382 0.22958036 -0.055688534
000260 56 5e bd 3e b1 f4 0a bb 27 5b ba bd 02 9e 48 3d
       0.36986035 -0.0021202976 -0.09099417 0.048978813
000270 3c 66 06 3e 2f 88 d5 be cc be c2 3e 5f 87 82 be
       0.13124937 -0.41705462 0.3803619 -0.25493905
000280 18 25 f8 3c f1 51 16 3e aa 39 40 3f bd 58 8b 3b
       0.030291125 0.14679696 0.7508799 0.004252522
000290 9a dc a2 be e5 5c b9 be e3 8f 50 be 3b 4a da 3e
       -0.3180893 -0.36203685 -0.20367388 0.42634758
0002a0 f0 11 22 be e8 40 2a be bf 67 a8 be f6 6a 65 be
       -0.15827155 -0.16626322 -0.32891652 -0.22404084
0002b0 00 74 83 be b2 c5 12 be e2 92 85 bd 2c 52 2a 3d
       -0.25674438 -0.14333227 -0.06522156 0.04158227
0002c0 01 e4 6b be 8d a2 98 bd 08 0d 46 be 56 37 23 3f
       -0.23036195 -0.07452879 -0.19340909 0.6375631
0002d0 5f ea b8 3e 9f 80 e6 be 54 fa 0f 3f 6c 80 e6 be
       0.3611631 -0.45020005 0.56241345 -0.45019853
0002e0 e1 71 e6 be be e0 e4 be 6b 3d 92 bd 3d 5e 68 be
       -0.45008758 -0.44702715 -0.07140621 -0.22692199
0002f0 99 83 8b 3e f8 3f 8e be 54 bc 87 3e b5 20 a6 be
       0.2724884 -0.2778318 0.2651087 -0.32446828
000300 03 4f e5 3e 63 3b 77 bd 5e e7 f0 3e 93 7a 93 be
       0.44786844 -0.06035937 0.4705152 -0.28804454
000310 c4 cf d3 bd 63 cd 77 3c 6d da 18 3e b4 61 0f be
       -0.103423625 0.015124652 0.14927073 -0.14002115
000320 9c 00 ad bc 82 a0 c5 bd a1 22 c3 3e d6 71 cf 3e
       -0.021118455 -0.09649755 0.38112357 0.40516537
000330 64 9e b8 3d 2c a4 d4 bc ad b4 5c be 4b e5 b9 bd
       0.090145856 -0.02595719 -0.21553297 -0.09076937
000340 dd ca 80 3f 40 a5 f4 3e c7 75 1e 3e 1b 61 a4 3e
       1.0061909 0.47782326 0.15474616 0.32105336
000350 ee 06 7d bd 65 de 1b 3e 66 4d d3 bd cd 19 62 3e
       -0.061774187 0.15221556 -0.10317497 0.22080155
000360 62 59 4d be c6 b4 be 3e 49 ea 71 be 9d 60 2b be
       -0.20053628 0.37247294 -0.23624529 -0.16736074
000370 da d9 cd be 62 6d 84 3f 4b 1b 7a be 8c a8 a8 be
       -0.4020527 1.0345881 -0.24424474 -0.3294109
000380 bc 55 2e be 68 cb 9e be b7 f6 8e be 5b e0 82 3e
       -0.17024893 -0.31014562 -0.27922603 0.25561795
000390 cd 17 82 be 68 de 78 3e 0a 5d dc 3e 71 3f 78 3e
       -0.25408784 0.24303591 0.43039733 0.24242951
0003a0 af 21 3d be 6b 62 74 3f 28 27 ff bd df a9 1a bf
       -0.1846988 0.95462674 -0.1245864 -0.6041545
0003b0 77 37 37 be 74 65 1f bf 89 16 15 bf 3d bd 21 3e
       -0.17892252 -0.6226418 -0.5823751 0.15794845
0003c0 23 29 67 3c 79 04 80 be 25 7f 06 bd d1 6c 2f 3f
       0.014108929 -0.25003412 -0.0328361 0.68525416
0003d0 0e 6a 5c bd 09 0c 15 3f 4e d4 38 3f f6 0e 66 3e
       -0.05381208 0.5822149 0.7219895 0.22466645
0003e0 32 c4 b6 bc d7 e2 25 be 0c 1e 2b 3f 4e 58 b6 3d
       -0.02231035 -0.16199814 0.6684272 0.089035615
0003f0 5c a3 09 be 8c fd 0c be 9a 1c 3c be 8f 59 f4 bd
       -0.13441223 -0.13768595 -0.18370286 -0.119311444

l1.bias f4 [8]
000000 4a 4d e4 bd 25 54 0b 3f 37 f7 45 3f a6 81 e6 3e
       -0.11147554 0.5442527 0.77330345 0.4502079
000010 e1 5d 1f 3f 0a 4d be 3e 62 21 5b 3f 6a 79 66 3e
       0.6225262 0.3716815 0.85597813 0.22507253

l2.weight f4 [8, 8]
000000 53 87 0d bd ce d5 95 bf 09 f7 81 3e 54 76 08 3f
       -0.034552883 -1.1705873 0.25383785 0.53305554
000010 70 75 8d 3f c7 13 a3 3e fb eb 66 3f 42 92 3f 3e
       1.1051464 0.31851026 0.9020383 0.18708137
000020 dd 12 51 be a7 71 01 3f de f1 92 3f 75 23 66 bf
       -0.20417352 0.50564045 1.1480062 -0.89897853
000030 47 93 c4 3d 08 b4 87 bf dd f9 4e 3f 97 c3 f2 be
       0.095984034 -1.0601816 0.8085001 -0.47414848
000040 1e 76 29 3e d6 aa 7d bf 17 32 2a 3f aa 59 97 bf
       0.16548964 -0.990888 0.6648268 -1.1824238
000050 51 a8 c7 3c e7 0a 35 3f 29 3c 09 3f 7d 9c ba 3f
       0.024372252 0.7071976 0.5360742 1.4579006
000060 22 d7 66 be 11 25 9a be fd 73 b3 bd bd d4 0e 3e
       -0.22543004 -0.30106404 -0.087623574 0.1394834
000070 81 af 76 be 80 16 92 be 2e e0 e6 3d 91 cc db 3d
       -0.24090387 -0.2853279 0.11273228 0.10732377
000080 03 3b a6 be ce a3 ae be c6 91 d8 3d 4d 7c 56 3d
       -0.32466897 -0.34109348 0.10574679 0.052364636
000090 b5 06 b0 be d1 20 e5 bd 4a c4 cb 3d 56 f3 4b be
       -0.34380117 -0.111879 0.099495485 -0.19917044
0000a0 37 c0 fe 3d 11 88 ee bd b8 f4 87 3f ec ad 97 be
       0.12439006 -0.11647046 1.0621557 -0.2962488
0000b0 a7 00 d0 3f 11 06 8d bf f0 ec 39 3d 97 3b 06 3e
       1.6250199 -1.1017476 0.045391977 0.13108669
0000c0 ea 19 8f be 21 0b 8e 3d 5a 99 a0 3f 6e 92 bb be
       -0.27949458 0.069357164 1.2546799 -0.36635154
0000d0 b7 1b 4a bf 77 f7 6b 3f 8a b6 35 3f 1c 02 b1 be
       -0.7894854 0.92174476 0.7098166 -0.34571922
0000e0 44 17 53 3d 7b cf 8c bf a7 57 86 3e 4e a9 bb 3f
       0.05153586 -1.1000818 0.26238748 1.4661043
0000f0 25 f7 1c 3f d0 fc 7e be 66 31 84 3f 96 61 fe be
       0.6131461 -0.24901128 1.0327575 -0.49683827

l2.bias f4 [8]
000000 42 e1 82 3e 61 04 c6 3e 65 9c 1a be 89 7b a7 be
       0.25562483 0.38675216 -0.15098722 -0.32711437
000010 68 d4 7a be 3c 39 0e 3f b4 d1 01 3f a2 42 e9 3d
       -0.24495089 0.5555608 0.50710607 0.11389662

l3.weight f4 [7, 8]
000000 cc 0c a1 3b 86 b7 99 3e ef b3 a4 3e 23 4b 62 be
       0.0049148556 0.3002283 0.32168528 -0.22098975
000010 8b 8c 83 be c0 43 38 be 2d 7e 05 bf c5 e4 9a 3c
       -0.25693163 -0.17994595 -0.52145654 0.018907914
000020 70 58 87 3e c1 7d a6 bf db 40 f1 3e f0 6a 2f bd
       0.2643466 -1.3007127 0.47119793 -0.042826593
000030 36 76 26 be 70 54 3b 3f cc 3f b3 bf 60 2d 95 bf
       -0.16256031 0.73175716 -1.4003844 -1.1654472
000040 96 ec e9 3e cf ce d2 3c 09 9c b1 bf 39 7b 99 be
       0.45688313 0.02573338 -1.3875743 -0.29976824
000050 32 1b 55 3c e0 dc 3c 3f 48 7b 51 bf e3 a6 d9 3e
       0.013006972 0.7377453 -0.8182874 0.42510137
000060 0e fe 78 bf bc 26 61 3f 34 55 7e bf b3 db 8f 3d
       -0.97262657 0.8794973 -0.9934876 0.07024326
000070 ff 4e 10 3e 67 8e 1c 3f 89 59 5b 3f b1 93 7e bf
       0.14092635 0.6115479 0.85683495 -0.9944411
000080 b0 a6 37 bf 26 80 13 bf e4 b9 2e bf be fa 71 3e
       -0.7173872 -0.57617414 -0.68252397 0.23630807
000090 79 76 01 bc 2e 82 22 bf 01 e7 6c bf 22 16 59 bf
       -0.007901781 -0.6347989 -0.92539984 -0.84799397
0000a0 e0 40 68 3e a3 a6 95 bf cb b1 2d 3f 8d b6 aa be
       0.22680998 -1.1691478 0.67849416 -0.333424
0000b0 e2 94 b1 be dc 2c 9c bf ac 99 20 3f ba 80 c1 bf
       -0.346839 -1.220119 0.62734485 -1.5117409
0000c0 e8 9f 15 3f 3e 08 b1 bf 3e 1d 95 bf 63 1f 53 3e
       0.5844712 -1.383064 -1.1649549 0.20617442
0000d0 1b 5f 9e be 93 6a bc bf fe 0c 04 3f 41 e6 56 3f
       -0.30931935 -1.4720024 0.51582325 0.8394509

l3.bias f4 [7]
000000 4c 64 7a bf ad 7e 3f bf 62 5c 6b bf c6 ea 00 bf
       -0.9780929 -0.74802667 -0.9193784 -0.50358236
000010 54 3d 03 40 2e 05 6c bf 35 12 e6 be
       2.0506182 -0.92195404 -0.44935766
