university_admission_chatbox_project_backend/data.pth (torch, 6271 bytes, 6 tensors)

l1.weight f4 [8, 82]
0.05801026 -0.13969576 0.11711027 -0.28404474 0.15134811 0.12348554 -0.34773833 0.322751
0.32169786 0.1839868 0.17041312 -0.15932195 -0.096998826 0.31387624 0.2893225 0.39932874
-0.058664195 0.20760407 0.191293 0.5215464 0.1560041 0.3970204 0.2681808 0.11611525
0.19268067 0.4127218 0.22715296 0.2836021 0.2064998 0.39796633 -0.104044326 0.34590548
0.34118894 0.26289797 0.37950614 0.22829044 0.48220962 0.24862458 0.18116455 0.3276261
-0.05633952 0.17003636 0.049844127 0.42071533 0.44753462 0.28137654 0.24540739 -7.8077894e-05
0.4122663 0.182886 0.24159554 0.21024296 0.17388691 0.030907286 -0.01637262 0.28359222
0.37277734 -0.38350755 0.15570849 0.09437945 -0.08450887 0.28885385 -0.012919059 0.08442983
0.36884624 0.36252865 0.08450133 0.078969404 -0.45799938 -0.2142747 0.32089892 0.21960613
0.025302025 0.39750758 0.17321658 0.17445163 0.40410885 0.3195614 0.03475879 0.14745978
0.10104552 3.6934782e-06 -0.022841197 0.053401813 0.092203714 -0.094695374 -0.26867658 -0.0048140013
-0.13243836 0.45613527 -0.054412358 0.27060655 -0.25124478 -0.5434288 -0.6874206 0.29914814
-0.01817277 0.32141703 -0.08211778 0.97215056 -0.21613944 -0.4577644 -0.2928759 0.63396347
0.42392012 -0.18129432 0.28698394 -0.114156954 0.21821725 -0.47587305 1.0480046 -0.7589488
-0.026690457 -0.7686512 -0.74402535 -0.041676663 -0.13862453 -0.27197528 0.038066838 -0.35658747
0.7675861 0.36245155 0.17560764 -0.023559235 0.029805627 0.5646843 0.41312587 -0.24894977
0.41278327 0.04825276 0.59529424 -0.092626855 -0.30320477 -0.42614567 0.2721664 -0.024830168
-0.26399294 0.3594081 0.4209324 -0.105769925 -0.0009503216 0.08306527 -0.059854537 0.83318686
-0.09655532 0.23807727 -0.16672017 0.4020255 -0.13906708 -0.017604696 -0.1342067 -0.009631101
0.26143903 -0.16139393 0.041373268 -0.41562593 -0.28006393 0.089011036 0.20801172 0.21201344
-0.10470783 -0.19838634 -0.34639868 0.13989793 0.07317423 -0.1944794 -0.08389774 -0.43074015
-0.1949748 -0.03748104 -0.22365804 0.42130786 -0.19679855 0.24509919 -0.22195548 0.46260864
0.2124149 0.24261637 -0.15976802 0.31389567 -0.058056932 -0.264108 -0.25629035 -0.12542048
0.51704425 0.17599833 0.0874837 -0.17828818 0.21269831 -0.022066882 0.28168413 0.48966384
-0.21970987 0.5761243 -0.2231498 0.7129653 0.70712984 -0.28206432 0.5958224 -0.12591097
0.43959698 -0.2646382 -0.11587232 0.49233004 -0.05689151 0.0078135375 0.017070483 0.30674824
0.24121048 -0.20229469 0.15826747 -0.009531541 0.2488659 -0.3270884 -0.3027515 -0.25230435
0.07268834 -0.44523704 -0.4453568 0.38619563 0.4018594 -0.2851799 -0.12561983 -0.1096538
0.059908837 -0.19457993 -0.0139786545 0.11725164 -0.12160557 0.22581995 -0.26645514 0.02642524
-0.611103 -0.087664045 0.006774538 0.3017444 0.01783463 0.041578002 -0.46556738 0.24774694
0.14843789 0.19638899 -0.09348672 -0.28971428 -0.243319 0.18324037 0.08513126 -0.083610326
0.0067585306 -0.032231893 0.09952043 0.09340594 -0.098270155 -0.028926726 0.046714358 0.08834109
00000000: 2b9c 6d3d 680c 0fbe 82d7 ef3d 506e 91be
00000010: 00fb 1a3e fde5 fc3d c20a b2be 9e3f a53e
00000020: 95b5 a43e 0967 3c3e c780 2e3e 4b25 23be
00000030: 52a7 c6bd 63b4 a03e 1422 943e d174 cc3e
00000040: de49 70bd 2996 543e 50e2 433e 1184 053f
00000050: 8abf 1f3e 4246 cb3e fe4e 893e d5cd ed3d
00000060: 154e 453e 4650 d33e c99a 683e 4b34 913e
00000070: af74 533e 3ec2 cb3e 3115 d5bd 861a b13e
00000080: 51b0 ae3e 909a 863e a14e c23e f8c4 693e
00000090: 2ee4 f63e 7197 7e3e 3383 393e 9cbe a73e
000000a0: 45c4 66bd 031e 2e3e 5b29 4c3d 0068 d73e
000000b0: 4223 e53e 9610 903e 134c 7b3e c0bd a3b8
000000c0: 9214 d33e 7846 3b3e d264 773e ee49 573e
000000d0: 690f 323e 4731 fd3c df1f 86bc 0033 913e
000000e0: acdc be3e 1a5b c4be 0c72 1f3e 034a c13d
000000f0: fd12 adbd a7e4 933e 76aa 53bc 8ce9 ac3d
00000100: 6ad9 bc3e 5b9d b93e 090f ad3d b6ba a13d
00000110: e57e eabe d46a 5bbe dd4c a43e 6ee0 603e
00000120: 3146 cf3c 1d86 cb3e b05f 313e 73a3 323e
00000130: 5be7 ce3e 8d9d a33e 3c5f 0e3d b2ff 163e
00000140: f4f0 ce3d 79dd 7736 761d bbbc dcbb 5a3d
00000150: 4dd5 bc3d a6ef c1bd fa8f 89be c5be 9dbb
00000160: ec9d 07be 908a e93e 7edf 5ebd f18c 8a3e
00000170: 28a3 80be 261e 0bbf ccfa 2fbf f229 993e
00000180: 10df 94bc c690 a43e 5e2d a8bd dcde 783f
00000190: a853 5dbe 1860 eabe d4f3 95be 6e4b 223f
000001a0: 0f0c d93e 38a5 39be 8fef 923e 1fcb e9bd
000001b0: 5874 5f3e a2a5 f3be 0425 863f 784a 42bf
000001c0: f2a5 dabc 53c6 44bf 7278 3ebf 26b5 2abd
000001d0: 97f3 0dbe 5840 8bbe f9eb 1b3d a292 b6be
000001e0: 8680 443f 4093 b93e 7dd2 333e 4cff c0bc
000001f0: ee2a f43c 268f 103f 3c85 d33e b0ec 7ebe
00000200: 5458 d33e b0a4 453d 3465 183f 26b3 bdbd
00000210: a83d 9bbe c42f dabe 6559 8b3e a368 cbbc
00000220: 152a 87be 5704 b83e 7484 d73e e79d d8bd
00000230: 011f 79ba 201e aa3d 082a 75bd bc4b 553f
00000240: ccbe c5bd 87ca 733e b1b8 2abe 49d6 cd3e
00000250: 9a67 0ebe b937 90bc 7b6d 09be c4cb 1dbc
00000260: 56db 853e 7344 25be 0477 293d eccc d4be
00000270: 8a64 8fbe 6b4b b63d 0601 553e 0d1a 593e
00000280: 0f71 d6bd ca25 4bbe 2b5b b1be 6741 0f3e
00000290: 5fdc 953d 9c25 47be 94d2 abbd f989 dcbe
000002a0: 79a7 47be b885 19bd 9d06 65be aab5 d73e
000002b0: 8f85 49be 48fb 7a3e 4c48 63be 0adb ec3e
000002c0: 4b83 593e 6d70 783e 3a9a 23be efb6 a03e
000002d0: 1bcd 6dbd 2a39 87be 7d38 83be 3a6e 00be
000002e0: 035d 043f e838 343e a72a b33d 2d91 36be
000002f0: 96cd 593e 9bc5 b4bc e738 903e 38b5 fa3e
00000300: a0fb 60be e27c 133f 6281 64be e584 363f
00000310: 7606 353f bc6a 90be d187 183f ceee 00be
00000320: db12 e13e a87e 87be 784e edbd af12 fc3e
00000330: 1207 69bd 5a04 003c 66d7 8b3c 1b0e 9d3e
00000340: e1ff 763e 5726 4fbe de10 223e 2e2a 1cbc
00000350: b4d6 7e3e 2178 a7be 3f02 9bbe 092e 81be
00000360: a0dd 943d 1cf6 e3be ce05 e4be 6fbb c53e
00000370: 84c0 cd3e 1a03 92be 7ca2 00be 2c92 e0bd
00000380: f862 753d f63f 47be ba06 65bc a121 f03d
00000390: 570c f9bd 583d 673e cf6c 88be bf79 d83c
000003a0: 3f71 1cbf 3589 b3bd f2fc dd3b 3e7e 9a3e
000003b0: ee19 923c b24d 2a3d d95e eebe 60b1 7d3e
000003c0: 1a00 183e 321a 493e f775 bfbd 6e55 94be
000003d0: 9e28 79be 5da3 3b3e 4c59 ae3d e43b abbd
000003e0: aa76 dd3b 9705 04bd 5ed1 cb3d 9d4b bf3d
000003f0: dd41 c9bd bef7 ecbc 8e57 3f3d 2cec b43d

l1.bias f4 [8]
0.4580417 0.7687483 0.8273668 -0.1310936 0.4481655 0.4280636 0.5529319 0.9826337
00000000: 7184 ea3e b0cc 443f 50ce 533f 673d 06be
00000010: f375 e53e 272b db3e f28c 0d3f e28d 7b3f

l2.weight f4 [8, 8]
0.83425087 0.92723083 0.15618017 -0.3312841 0.52587044 -0.014805023 0.90098554 -0.7817394
0.7741795 0.58939755 1.0831603 0.24086507 0.42867643 0.6612718 -0.33459875 -0.5180375
0.5609074 0.2090549 0.03986819 0.1327502 0.1253352 0.6349305 0.8368654 -0.7582929
0.2824636 -1.1167004 0.24665207 -0.19527788 -0.550272 0.9544693 0.81704473 0.43140936
-0.27356583 1.4135613 -0.59770626 0.15117645 -0.7340221 -0.36264083 0.96573025 0.7794726
0.4125263 0.38483033 1.1020119 0.018602246 0.3440931 0.122612335 -0.6215096 0.6037237
0.53898555 -1.2226803 -0.11468197 0.034293793 1.0315531 -0.41057754 0.28487638 0.5808974
0.34280166 0.08475491 -0.52065456 -0.013447445 1.0437099 0.52869964 -0.21005736 -0.4381625
00000000: 7791 553f 005f 6d3f b2ed 1f3e 129e a9be
00000010: 729f 063f c490 72bc fda6 663f 1320 48bf
00000020: a130 463f c2e2 163f ffa4 8a3f 55a5 763e
00000030: 7a7b db3e 1c49 293f 8750 abbe 1b9e 04bf
00000040: a197 0f3f 7d12 563e d44c 233d abef 073e
00000050: df57 003e ce8a 223f d03c 563f 7c1f 42bf
00000060: 129f 903e 0af0 8ebf 5c92 7c3e edf6 47be
00000070: a0de 0cbf 1a58 743f d829 513f b0e1 dc3e
00000080: d210 8cbe 94ef b43f 4703 19bf 00ce 1a3e
00000090: dfe8 3bbf 0fac b9be 193a 773f 848b 473f
000000a0: a636 d33e 7b08 c53e ba0e 8d3f bd63 983c
000000b0: f92c b03e 2d1c fb3d 411b 1fbf a38d 1a3f
000000c0: f5fa 093f ca80 9cbf 61de eabd a677 0c3d
000000d0: ef09 843f 3837 d2be 51db 913e b1b5 143f
000000e0: b383 af3e fb93 ad3d 9e49 05bf ac52 5cbc
000000f0: 4998 853f dc58 073f 4719 57be d656 e0be

l2.bias f4 [8]
-0.11749715 0.2786745 0.06531007 0.8758384 0.96824354 0.71253884 -0.24992445 -0.01848159
00000000: 59a2 f0bd 6dae 8e3e 49c1 853d f236 603f
00000010: cfde 773f f268 363f 32ec 7fbe b466 97bc

l3.weight f4 [7, 8]
0.44587672 -1.4964685 0.24981956 0.67079884 0.20550627 -1.4033248 -0.33331344 -0.60617226
0.46439946 0.42653063 -0.018013548 -0.9416043 -1.3236723 0.23315737 -0.8650967 0.486575
0.28132105 0.11741843 0.41335234 0.32130203 -1.0447983 -0.91186434 -0.39045548 0.58435774
0.5208153 0.41500992 -0.06854549 -0.80385983 0.64578974 -0.47174937 -1.1726682 -0.66288674
-0.85858965 0.43253717 -0.48487252 0.40643632 -1.1604468 1.0386652 -0.18778493 -0.5660949
-0.028005833 -1.2075249 -0.45580226 -0.5707735 -0.55463034 -0.008567684 1.192162 0.5404264
-1.2900306 -2.034886 -1.0566314 0.8493853 1.0706599 0.29816866 -1.3751131 -0.21537514
00000000: f449 e43e 488c bfbf b3d0 7f3e 79b9 2b3f
00000010: 3c70 523e 26a0 b3bf 0fa8 aabe 1b2e 1bbf
00000020: c4c5 ed3e 3962 da3e 2691 93bc fb0c 71bf
00000030: 186e a9bf cec0 6e3e fa76 5dbf 5c20 f93e
00000040: 5009 903e 1379 f03d eba2 d33e b381 a43e
00000050: f3bb 85bf f16f 69bf c8e9 c7be 7898 153f
00000060: 2754 053f 2e7c d43e 9461 8cbd c2c9 4dbf
00000070: 7a52 253f 2289 f1be fe19 96bf f2b2 29bf
00000080: 88cc 5bbf 8375 dd3e 3641 f8be 6c18 d03e
00000090: 8589 94bf fbf2 843f b14a 40be 98eb 10bf
000000a0: 7d6c e5bc 2d90 9abf ea5e e9be 361e 12bf
000000b0: 41fc 0dbf 795f 0cbc c498 983f 6259 0a3f
000000c0: b91f a5bf 923b 02c0 b33f 87bf 5171 593f
000000d0: 620b 893f 90a9 983e b503 b0bf 4d8b 5cbe

l3.bias f4 [7]
-0.5278084 -0.45026007 -0.41621682 0.2204969 0.28069 0.024682479 0.24712172
00000000: 741e 07bf 7d88 e6be 5f1a d5be f0c9 613e
00000010: 9ab6 8f3e e932 ca3c 7a0d 7d3e
