university_admission_chatbox_project_backend/data.pth (torch, 6271 bytes, 6 tensors)

l1.weight f4 [8, 82]
00000000: 1bd3 283e 2fbc ba3e 08f5 903e 644c 263f
00000010: 2766 903e e730 a63e 6e6c 283f 65a0 93be
00000020: a9d7 bd3e 00bb debc e277 0e3e 7ab4 ee3d
00000030: af91 713f dc18 913d 182c 503e 7693 cfbd
00000040: 08eb 2dbd e218 cfbe a92f 9d3e a3cb b53e
00000050: e170 723e 24ae 28be 6892 36bc 5565 6a3e
00000060: 71fc 73be fa13 d83e 1527 6cbe 68d7 9d3e
00000070: 8517 cfbe 16a9 e13e 512c 973e dcc1 be3e
00000080: efcf 0f3f f461 513e 27a3 843c b3a0 593e
00000090: 8e4c 99bd f1c9 983e 5de2 b2be 6494 e6be
000000a0: 9aae 133d 51fa 243e 0a0f b93e e01c 68be
000000b0: 41de b2be 500f a73e 58b1 3bbd 12d4 d73e
000000c0: 83cb 96be 14fd 793e 4306 ad3e 3088 a63e
000000d0: 3716 b83b 12de 073f a108 d53e a21a 84be
000000e0: a1bd 6abe decd 373f 8921 313e 673b f33e
000000f0: 8c67 a03e b1e6 acbe 569e 983e c9a3 543c
00000100: 6a11 c73e 0fd8 5b3d f736 8b3e 4315 e23e
00000110: 65ed 263f 2a80 233e deb5 a03e d12d 0c3f
00000120: 5dbd 8e3e d36e 843e 5f1f 263f ebd8 b9bd
00000130: 4fd9 a43e 5958 98bd 0588 8bbd 90e4 863e
00000140: 9b1f b03e a6b3 903e d859 813d eacc da3e
00000150: 0d32 c63e edc1 5ebe c307 0a3e eedf 063d
00000160: b1b1 de3d 46ca 4c3d a8d4 903e b03e d33c
00000170: 8aac 493e 17a7 da3d 8c40 85bd 48a7 c33e
00000180: 7fea 5c3e 16bb 393e 2a44 babe cd69 05bf
00000190: 27f2 af3e 5565 c13e 8a45 ffbc 09a1 3c3e
000001a0: 4922 073e 0da6 923e 660b 0dbc c95a f83e
000001b0: a934 9a3c 879e c7bd a869 05bf 6b14 4dbd
000001c0: 0033 0c3f 4cdd dcbd e3f3 e0bc 25d9 273e
000001d0: d477 863c 1ecf 953e 0f94 b23e 90ee 9e3e
000001e0: 16e7 febe de24 783d e60b bd3d 1877 14bc
000001f0: 4c78 093f ba7e 813e 032a a5bb acb5 af3e
00000200: b95c d03d f48d 813e 835e 8b3e b577 e23d
00000210: dec8 9a3e 30e7 4b3e 92fc f63d 4696 5abe
00000220: 89eb 0dbe 6665 2f3d a03f b3bd a31f 873e
00000230: 0b60 843e 1019 c23e b0c4 413d d5b6 f0be
00000240: 1569 153e 070d 7a3c 0b20 d93e d4e8 6c3e
00000250: 7028 fd3d 2acd ce3e 317b 823f 5aad 0c3f
00000260: f201 ab3e a526 e5bd dbd3 3fbe 4ca8 7f3e
00000270: 5b8d 983e e99d 1c3e 5ad3 e63e 5596 543e
00000280: f4c7 8abe 86e6 b13e 8b75 d13d d8cd e43e
00000290: 06d4 07bd fe9c 9e3e bbe5 383e c21f 7b3e
000002a0: b6d9 6e3e 9592 efbd 36dd f7be 31af 813e
000002b0: 7c44 203e 8428 7e3e 3ae5 083e f621 04bd
000002c0: 63a8 713e 9cbf 943e 6e35 6b3e d71d ad3e
000002d0: ac56 a13e 2bae 71bd aa48 403e 62aa 043f
000002e0: 56e1 a83e 881d ba3e 0250 1a3e d74b 9a3e
000002f0: f3ac 803e ef09 df3d 2066 9a3e d5fd bc3e
00000300: e0be 64bd f7e4 ab3e 80a1 813e fe5f aa3e
00000310: 15bc b63e 1c90 533e 2804 883e 65c9 8d3e
00000320: 2a97 eb3e 8ef5 103e a59b 4dbe c300 413e
00000330: 74ff 733e 089f eabd f0a8 0c3d 1b0e 8e3e
00000340: 9a14 733e bdb4 953e 3b53 903e 90e9 f83d
00000350: 2298 983e 9681 8b3e f5b5 bf3e 601f 843e
00000360: 76de 493e 58b8 893e 8048 893e bdb0 003e
00000370: 900b 713e 4bef 0bbf 4391 043e 4a0d aabd
00000380: b2c3 3cbe 4a58 d4bd bee0 c23d 56cf 563e
00000390: 77f6 8c3e 0aa8 b93e 38ee b53e 6e25 013d
000003a0: 4a66 9a3e 95a8 663e 607d 983e 798b 113f
000003b0: b87d fc3d 93c2 ed3e ee23 fb3e 6a0c 3d3d
000003c0: 13fc 6c3e 4dbe a93e 6ac7 8e3e 92c4 4d3e
000003d0: a4ff 423e f95b 323d 158c e0bc 8300 363f
000003e0: d914 c63e 295c 57be 085d 343e 49c2 e4bd
000003f0: df56 bcbe 18a0 22be 38b6 b43d 104e e53c
0.1648678 0.36471698 0.28311944 0.6496031 0.28202936 0.32459185 0.6579045 -0.2883331
0.37078598 -0.027188778 0.13912919 0.11655517 0.9436292 0.0708482 0.2032932 -0.10135548
-0.04246047 -0.40448672 0.30700424 0.35506925 0.23675872 -0.1647268 -0.011143304 0.22890218
-0.23826768 0.4220274 -0.23061784 0.30828404 -0.4044763 0.44074315 0.29525998 0.37257278
0.56176656 0.20447522 0.016191078 0.21252708 -0.07485305 0.2984157 -0.34938326 -0.45035088
0.036055185 0.16111113 0.36144286 -0.22667265 -0.3493519 0.3262887 -0.045823425 0.42153984
-0.29452142 0.24412948 0.3379384 0.32525778 0.0056178826 0.5307323 0.41608146 -0.2580157
-0.229239 0.71798503 0.17297949 0.47506258 0.31329 -0.33769754 0.298083 0.012978503
0.38880473 0.053672846 0.27190372 0.44156846 0.65205985 0.1596686 0.31388754 0.5475741
0.27878848 0.25865802 0.6489162 -0.09074577 0.32197043 -0.07438726 -0.06813053 0.26346254
0.34399113 0.2826206 0.063159645 0.42734462 0.3871006 -0.21753664 0.13479523 0.0329284
0.10873736 0.04999759 0.28287244 0.025786728 0.19694725 0.10676401 -0.06506452 0.38213563
0.21573828 0.18137774 -0.3638013 -0.52114564 0.34364435 0.37772623 -0.031161088 0.18420805
0.13196672 0.28642312 -0.008608675 0.48506764 0.018823938 -0.097470336 -0.52114344 -0.0500683
0.5476532 -0.107843965 -0.027460044 0.16391428 0.01641456 0.2925958 0.34878585 0.31041384
-0.4978568 0.060582034 0.09230785 -0.009061597 0.53699183 0.25291997 -0.0050404086 0.34318292
0.101739354 0.25303614 0.27220544 0.110579886 0.30231375 0.1991241 0.12059893 -0.21346387
-0.13859381 0.04282131 -0.0875237 0.26391324 0.25854525 0.37909746 0.047306716 -0.4701449
0.14590867 0.015261895 0.4240726 0.23135692 0.123612285 0.40390903 1.0193845 0.54952013
0.33399922 -0.111890115 -0.1873316 0.24966544 0.29795346 0.15294613 0.45083123 0.20760472
-0.27105677 0.34746188 0.10227498 0.44688296 -0.033161186 0.3097915 0.18056385 0.24523833
0.23325238 -0.1169788 -0.48410958 0.25328973 0.15651125 0.24820143 0.13368693 -0.03225895
0.2359939 0.29052436 0.229696 0.33811828 0.31511438 -0.05900399 0.18777719 0.51822484
0.32984418 0.36350656 0.15069583 0.30135986 0.2513195 0.108905666 0.3015604 0.36912408
-0.055846095 0.33573124 0.25318527 0.3327636 0.3569037 0.20660442 0.2656567 0.27692714
0.46013767 0.14156172 -0.20078905 0.18847947 0.23827916 -0.11456114 0.0343408 0.27745137
0.23738328 0.29239455 0.281885 0.121539235 0.29803568 0.27247304 0.3744351 0.25805187
0.19713768 0.26898456 0.26813126 0.1256742 0.23539567 -0.5466201 0.12946038 -0.08303316
-0.18434027 -0.10368402 0.095155224 0.2097753 0.27531788 0.36261016 0.3553331 0.031529836
0.30156165 0.22525246 0.29783154 0.56853443 0.123286664 0.4643751 0.4905085 0.046154417
0.23143034 0.33153 0.27886516 0.20094517 0.19042832 0.043544743 -0.027410546 0.7109453
0.3868778 -0.2103125 0.17613614 -0.111698695 -0.36785027 -0.15881383 0.08823818 0.027991325

l1.bias f4 [8]
00000000: cc13 cf3e 556a 053f 9db2 6e3f 9808 5f3f
00000010: 2635 9c3e 325d 013f 84d5 253f 6495 973f
0.4044479 0.52115375 0.9324129 0.8712249 0.305093 0.5053283 0.64778924 1.1842465

l2.weight f4 [8, 8]
00000000: 64e9 08bf 0332 4ebe 6849 f53e 11e2 86be
00000010: 17b0 17bf 224b 193f 2be8 153e 978e c7be
00000020: c6fb 983f b462 6c3e 188e 173f df81 7dbf
00000030: f133 9b3f ff5f f83d e8b2 1e3e 56fb dfbe
00000040: cafd d43d 631d 3e3f 9fa2 293e 5eac 29bf
00000050: 47e1 02bd ed7f f73e 08ef 523f 6ca8 93bf
00000060: 99ad c2be e262 ea3d 1d1f 283f 0c5c 80bf
00000070: 5ef9 f1be 909f 513e e420 073e 6457 edbc
00000080: 2402 15bf 6a81 93bf 92f5 643f 2b47 c43d
00000090: 050a cb3e e5fc 8a3f b220 743f eb7b c53f
000000a0: 02f9 423f aaae 763f aff9 763f 6465 823f
000000b0: e9ad 82bf dcfc 58bf 7170 73bf 9846 f23e
000000c0: e591 f6bc 3cdf 683f a910 423f 41d9 0b3f
000000d0: 39ec 82be da0d 393f 41c4 58bf 5198 80bf
000000e0: 1a56 46be fe69 b23d 9495 2cbe 9c0e 0abe
000000f0: 4a2f 28bd 32e7 a3be ce11 273e fa9c 983c
-0.53481126 -0.20136265 0.47907567 -0.2634435 -0.59253067 0.5988027 0.14639346 -0.38975975
1.1951835 0.23084527 0.5920119 -0.9902629 1.2125226 0.12127685 0.15497935 -0.43746442
0.10399969 0.7426359 0.16565941 -0.66278636 -0.031953122 0.48339787 0.8239598 -1.1535773
-0.3802307 0.11444642 0.65672475 -1.002809 -0.47260565 0.20471025 0.1319614 -0.028972335
-0.5820639 -1.1523869 0.8943721 0.09583887 0.39656082 1.0858427 0.9536239 1.5428442
0.76161206 0.96360266 0.96474737 1.0187192 -1.0209323 -0.8476083 -0.95093447 0.47319484
-0.030098865 0.9096563 0.7580667 0.5462838 -0.2557085 0.7228676 -0.8467446 -1.0046483
-0.19368783 0.08711623 -0.16853935 -0.13482136 -0.041060723 -0.32012326 0.16315386 0.01862954

l2.bias f4 [8]
00000000: b331 00be 5e45 ec3c 0f0f 443e 5e66 043c
00000010: 77fa 223f 9910 123f 0514 c83d bb48 7dbe
-0.12518959 0.02884167 0.1914637 0.008081047 0.6366343 0.57056576 0.097694434 -0.24734776

l3.weight f4 [7, 8]
00000000: d8e6 94be b69f 2a3f b99f ee3e 7fda 12bf
00000010: 5ba7 8cbf f8c4 7cbf 92ec 65bf 0250 58bd
00000020: 249d 4a3f 1eb1 c7be 0832 063f 5191 6f3f
00000030: eb2d e7be 47a5 95bf b983 8cbb dc0e b23e
00000040: 4f18 30bf e6bf 643e 3e32 a73b e53a 61bf
00000050: 1d34 46bf 10ad e8be e8ce 353f 6afb 32be
00000060: 28a8 24bf a378 a0bf 71a4 0abf 909d b5bf
00000070: 183b 8a3f cc23 c7bf 8222 96be eaff 14be
00000080: a31b 0ebf eec6 10bf 2dd8 10bf 2782 7b3e
00000090: d243 3b3e ceec 1c3f c52b b1bf d9f5 a53e
000000a0: 71f4 f3be db1e f03e 12f7 4bbf 33c4 7ebf
000000b0: b0a3 2f3e cf23 acbf fe67 c7be 005d a5bd
000000c0: 978e 4bbd ee3e 06bf 68ad 67bf 0c8b 9cbf
000000d0: a83f cdbf 22e6 443f b593 f83e 12e3 203e
-0.2908237 0.6664995 0.46606234 -0.5736465 -1.0988573 -0.9873805 -0.898141 -0.052810676
0.7914603 -0.39002317 0.5242009 0.9358111 -0.4515222 -1.1691064 -0.0042881635 0.34776962
-0.6878709 0.22338828 0.005102425 -0.8798049 -0.7742327 -0.45444536 0.7101884 -0.1747872
-0.64319086 -1.2536815 -0.5415717 -1.4188709 1.0799284 -1.5557799 -0.29323202 -0.14550748
-0.5551092 -0.5655354 -0.5657986 0.24561368 0.1828759 0.61298835 -1.3841482 0.3241413
-0.47647431 0.4689854 -0.79673874 -0.99518126 0.17152286 -1.3448428 -0.38946527 -0.08074379
-0.04969653 -0.52439773 -0.9049897 -1.2229934 -1.6035051 0.76913655 0.48550192 0.1571162

l3.bias f4 [7]
00000000: 48b2 d8bc 2e0f 9abd b636 f3be 4bde f53d
00000010: d66b 263f 81d5 9bbe 25e2 bf3e
-0.026452199 -0.075224265 -0.4750268 0.1200529 0.65008295 -0.30436328 0.37477222
