university_admission_chatbox_project_backend/data.pth (torch, 5375 bytes, 6 tensors)

l1.weight f4 [8, 61]
0.38496312 -0.12354438 0.17787777 0.38026243 0.21855716 0.52067417 0.3674724 0.51836467
0.6152292 -0.10718333 -0.42293552 0.5755532 -0.15059479 -0.29953352 -0.19011448 0.52913177
0.011343654 0.010011582 0.45796537 -0.44371122 0.7759818 -0.16260019 0.7480266 0.7020107
0.32355592 -0.05020775 0.5925146 -0.33627963 -0.15660203 -0.24644305 -0.30633894 -0.14678846
0.2550205 0.27906123 -0.1868598 0.035153713 0.3436662 0.07520504 -0.021433052 0.558129
0.31293815 0.1086343 -0.3363021 -0.24075043 0.4014393 -0.17071334 0.2992937 -0.23553047
-0.108513445 -0.17796777 0.28379923 -0.43734723 -0.1786451 0.44349697 0.42947283 0.24420309
0.4048846 0.3345381 -0.0961014 -0.21627921 0.09226648 -0.1531986 0.594893 0.04377364
-0.06310971 0.037946224 0.26411554 -0.10970621 0.16925895 -0.30080408 -0.11072414 0.5353242
-0.1552456 0.6159979 0.22183414 0.5238282 0.4713056 -0.13459837 0.28229216 -0.36633888
0.5219827 -0.33007464 0.5033066 -0.44687203 -0.43790832 0.49392137 0.44966963 0.0566417
-0.4707716 -0.66687936 0.3766666 0.5400766 0.4228634 0.0070505193 -0.09185385 -0.238386
0.43675998 -0.023574267 -0.19015668 -0.19073725 0.31978488 -0.08808185 -0.035140302 0.34726152
0.4589714 -0.005326641 -0.26265258 -0.10909675 -0.053134285 0.58709747 -0.23868012 -0.0075767995
1.0959383 0.5942495 -0.0011590852 -0.29327816 -0.07097438 -0.08343504 0.53699315 0.43802774
-0.21740109 0.25989017 0.3022314 0.44282642 0.20420013 0.30084592 0.1819829 0.7870823
0.51975834 0.46016246 0.68084204 -0.2121271 -0.42373845 0.39024156 -0.16787618 -0.18708287
-0.09252482 0.6918408 -0.032475274 -0.09708692 0.41345412 -0.42335835 0.6480334 0.24568567
0.46091068 0.66853136 0.20507894 -0.011323564 0.5543013 -0.2695504 -0.25809288 -0.21464424
-0.28982437 0.067027576 0.4077382 0.42280957 -0.1770026 0.025534352 0.30647457 -0.02622183
-0.03562797 0.6585507 0.5126547 0.21689507 -0.2862054 -0.16554959 0.3388582 -0.03382731
0.2872685 -0.16620107 -0.08111882 -0.18162824 0.50777173 0.7637536 0.3486873 0.6075497
0.33077365 0.24413335 0.4849571 0.64801717 0.006884418 -0.29127872 0.0869449 0.30070275
0.30342585 0.094994344 0.8386198 0.13500623 0.23452711 0.36633113 -0.42365462 0.4261734
0.10375933 0.57987684 -0.28254852 0.030850202 -0.25724617 -0.025377551 0.25415006 -0.04018371
-0.05604062 -0.30404025 0.81179094 -0.51841486 0.23895617 -0.5159924 -0.48401296 -0.5934423
-0.06510445 -0.3785614 -0.2938328 -0.2128218 0.44695896 -0.10264253 0.3442981 0.36995196
0.3470575 -0.15899052 -0.20377754 0.2840925 0.5279545 0.41501996 0.3510941 0.4852927
0.096913464 0.5635407 0.07833692 0.09700886 -0.174552 0.14714585 0.33146724 0.0021522618
-0.21321295 0.4656665 0.77566254 0.3381536 0.36370277 0.5517761 0.54035354 0.763636
0.058151774 -0.03546436 0.12502895 0.09444058 -0.119821005 -0.36910608 0.6986825 -0.36152312
-0.009960712 -0.28375667 0.023384046 0.38326707 0.12048783 -0.18960293 -0.23402935 0.50485027
00000000: e319 c53e d604 fdbd 9725 363e c2b1 c23e
00000010: 73cd 5f3e e74a 053f 5825 bc3e 8cb3 043f
00000020: a97f 1d3f ef82 dbbd 018b d8be 7457 133f
00000030: 8535 1abe 755c 99be 5fad 42be 2e75 073f
00000040: bcda 393c 9e07 243c 707a ea3e 1e2e e3be
00000050: bea6 463f aa80 26be ac7e 3f3f f9b6 333f
00000060: 1fa9 a53e a4a6 4dbd 09af 173f d82c acbe
00000070: 485c 20be 915b 7cbe 75d8 9cbe b74f 16be
00000080: 0c92 823e 1de1 8e3e 2d58 3fbe 57fd 0f3d
00000090: 04f5 af3e 1a05 9a3d 5e94 afbc 8be1 0e3f
000000a0: 6e39 a03e a97b de3d ca2f acbe 4887 76be
000000b0: 7489 cd3e 7acf 2ebe 063d 993e e62e 71be
000000c0: 4c3c debd 2f3d 36be 224e 913e faeb dfbe
000000d0: beee 36be 0912 e33e dde3 db3e 6010 7a3e
000000e0: 094d cf3e 9448 ab3e d0d0 c4bd 4c78 5dbe
000000f0: 35f6 bc3d 18e0 1cbe e84a 183f fd4b 333d
00000100: aa3f 81bd 806d 1b3d 273a 873e a6ad e0bd
00000110: 3852 2d3e fe02 9abe 57c3 e2bd 020b 093f
00000120: b4f8 1ebe 0ab2 1d3f 7d28 633e 9b19 063f
00000130: f84e f13e 28d4 09be 9988 903e c590 bbbe
00000140: a9a0 053f 8bff a8be b4d8 003f 69cc e4be
00000150: 8535 e0be 43e3 fc3e 193b e63e 2101 683d
00000160: fa08 f1be 9bb8 2abf 72da c03e 7642 0a3f
00000170: 8d81 d83e 0b08 e73b df1d bcbd 761b 74be
00000180: 019f df3e d21e c1bc 6fb8 42be a050 43be
00000190: d8ba a33e 4264 b4bd 47ef 0fbd 43cc b13e
000001a0: 4dfe ea3e 1a8b aebb 667a 86be 1e6e dfbd
000001b0: 56a3 59bd 054c 163f 9068 74be cd46 f8bb
000001c0: b547 8c3f bc20 183f 72ec 97ba 8e28 96be
000001d0: 045b 91bd fedf aabd 6278 093f 2c45 e03e
000001e0: 649e 5ebe 5310 853e 13be 9a3e 25ba e23e
000001f0: d719 513e 7a08 9a3e ba59 3a3e 3a7e 493f
00000200: e20e 053f 6a9a eb3e aa4b 2e3f d937 59be
00000210: 3ff4 d8be becd c73e bce7 2bbe a792 3fbe
00000220: a77d bdbd 7b1c 313f cb04 05bd 82d5 c6bd
00000230: 42b0 d33e 6dc2 d8be 84e5 253f 0695 7b3e
00000240: 7cfc eb3e df24 2b3f 3700 523e 7886 39bc
00000250: b1e6 0d3f 8302 8abe c024 84be b3cb 5bbe
00000260: dc63 94be c145 893d 10c3 d03e 7f7a d83e
00000270: 2b40 35be 6b2d d13c 3cea 9c3e 2acf d6bc
00000280: a2ee 11bd c796 283f 573d 033f be19 5e3e
00000290: 8489 92be d585 29be d27e ad3e 818e 0abd
000002a0: db14 933e 9d30 2abe a021 a6bd c1fc 39be
000002b0: 54fd 013f 5b85 433f 2487 b23e 6188 1b3f
000002c0: 2a5b a93e 18fe 793e 4c4c f83e 74e4 253f
000002d0: af96 e13b 7c22 95be 2b10 b23d b6f5 993e
000002e0: a25a 9b3e 658c c23d caaf 563f 133f 0a3e
000002f0: e027 703e c18f bb3e 42e9 d8be 6633 da3e
00000300: c67f d43d cf72 143f 33aa 90be 90b9 fc3c
00000310: c5b5 83be 95e4 cfbc f51f 823e ad97 24bd
00000320: d98a 65bd 2aab 9bbe 88d1 4f3f d6b6 04bf
00000330: edb0 743e 1418 04bf 8cd0 f7be d6eb 17bf
00000340: 7b55 85bd cdd2 c1be 4171 96be f5ed 59be
00000350: ced7 e43e 3f36 d2bd d747 b03e 586a bd3e
00000360: 85b1 b13e 69ce 22be 0fab 50be 9274 913e
00000370: 0728 073f 7f7d d43e 9bc2 b33e 4978 f83e
00000380: 917a c63d 3444 103f 1b6f a03d 95ac c63d
00000390: c2bd 32be 67ad 163e 13b6 a93e f60c 0d3b
000003a0: 7f54 5abe d76b ee3e d291 463f 7822 ad3e
000003b0: 4037 ba3e 3341 0d3f 9c54 0a3f a67d 433f
000003c0: 8e30 6e3d 1443 11bd 9707 003e 106a c13d
000003d0: b764 f5bd 79fb bcbe dbdc 323f 8f19 b9be
000003e0: 4132 23bc 8e48 91be e68f bf3c 953b c43e
000003f0: 53c2 f63d 4527 42be 64a5 6fbe de3d 013f

l1.bias f4 [8]
0.5221221 0.93012416 0.42364872 0.586601 0.83103526 0.45922667 0.91006505 0.54425067
00000000: cba9 053f 9e1c 6e3f 7ce8 d83e 7c2b 163f
00000010: babe 543f c21f eb3e 06fa 683f 0354 0b3f

l2.weight f4 [8, 8]
-0.72623503 0.7547288 -1.1360221 0.19971798 1.1745468 -0.7622777 1.2667937 0.059985247
0.7582749 0.7112642 0.94680417 1.5404779 -0.82702386 0.7420767 0.7009178 -1.1609123
0.31426165 1.1500453 0.57850486 -0.32797825 0.26086727 1.4534638 -0.31551373 1.0994067
-0.015140032 -0.07915473 -0.13195677 -0.308164 -0.29916027 -0.34628612 -0.29419336 -0.128254
1.3632499 -1.0820973 1.0032766 -0.33448243 0.75059205 0.7071959 0.89150345 0.45766288
0.16628571 -0.33870426 -0.37467635 0.24084952 0.15628742 -0.31614223 -0.25864363 0.107048355
0.6173914 0.5831213 0.016098926 -0.47176784 0.41691807 0.090438716 -0.3450801 0.9946343
-0.11042977 -0.08961763 -0.36960638 -0.07001123 0.2344264 0.2062588 -0.33306038 -0.06953506
00000000: 8aea 39bf e835 413f 2c69 91bf df82 4c3e
00000010: 8d57 963f a224 43bf 4c26 a23f 17b3 753d
00000020: 4e1e 423f 6915 363f c261 723f 612e c53f
00000030: d6b7 53bf bdf8 3d3f 596f 333f c698 94bf
00000040: e7e6 a03e af34 933f e518 143f c4ec a7be
00000050: 6590 853e 1a0b ba3f 048b a1be 5cb9 8c3f
00000060: e60d 78bc e01b a2bd ad1f 07be acc7 9dbe
00000070: 892b 99be 6a4c b1be 83a0 96be 0455 03be
00000080: f97e ae3f 2a82 8abf 5e6b 803f 4841 abbe
00000090: cd26 403f ca0a 353f 9239 643f ca52 ea3e
000000a0: cd46 2a3e a56a adbe 94d5 bfbe 42a1 763e
000000b0: cf09 203e 65dd a1be f06c 84be 2b3c db3d
000000c0: 5d0d 1e3f 7047 153f e5e1 833c 8e8b f1be
000000d0: 4976 d53e ef37 b93d 57ae b0be 5aa0 7e3f
000000e0: 0129 e2bd 7389 b7bd 0c3d bdbe 0c62 8fbd
000000f0: 790d 703e 8235 533e e486 aabe 6668 8ebd

l2.bias f4 [8]
0.74649024 0.64132744 0.006736379 -0.2681385 0.10053824 -0.19968913 -0.116636924 -0.22114892
00000000: fc19 3f3f 092e 243f d8bc dc3b 7349 89be
00000010: fee6 cd3d 4f7b 4cbe 57df eebd dd74 62be

l3.weight f4 [7, 8]
-1.0154477 0.16120669 -0.25390697 0.15268707 0.24736716 0.1370455 -0.84895575 0.17130738
0.08948941 -1.2610006 0.59561056 -0.20327605 -1.1068687 0.15221567 0.80838686 0.04465346
0.6790122 -1.3923509 -0.4942831 0.3466107 0.102383055 -0.09849675 -0.43451735 -0.03521135
0.71784383 0.36756325 -0.60228795 -0.3089506 -1.4184362 0.10500888 -0.89790237 0.021590414
-0.5310647 -0.89011717 0.45375448 -0.052072134 0.6586232 -0.13731207 0.33380425 0.26164585
-0.9713678 0.5752838 -2.159127 0.08235018 0.32807764 -0.366579 -1.0340269 -0.3126835
-1.1611388 0.32713893 0.7383662 0.18127279 -1.1758446 0.20476353 -0.40277255 -0.15935321
00000000: 31fa 81bf 5e13 253e 1800 82be 005a 1c3e
00000010: d14d 7d3e a855 0c3e 2a55 59bf 346b 2f3e
00000020: 3946 b73d 7868 a1bf ef79 183f 9927 50be
00000030: e0ad 8dbf 6dde 1b3e 71f2 4e3f 8ce6 363d
00000040: bed3 2d3f 8e38 b2bf ad12 fdbe f576 b13e
00000050: 35ae d13d aab8 c9bd 0f79 debe c739 10bd
00000060: 9dc4 373f 4031 bc3e 8b2f 1abf c62e 9ebe
00000070: 518f b5bf e50e d73d eedc 65bf 61de b03c
00000080: dbf3 07bf b8de 63bf 8252 e83e 9749 55bd
00000090: 889b 283f 899b 0cbe 64e8 aa3e 72f6 853e
000000a0: 8fab 78bf cd45 133f 232f 0ac0 36a7 a83d
000000b0: cbf9 a73e 3eb0 bbbe fe5a 84bf 0d18 a0be
000000c0: 32a0 94bf c17e a73e 9105 3d3f 939f 393e
000000d0: 1382 96bf 88ad 513e 3438 cebe 7d2d 23be

l3.bias f4 [7]
-0.6059826 -0.37937355 0.094186224 -0.012808975 -0.17612383 0.18909517 -0.09578984
00000000: ad21 1bbf 403d c2be b5e4 c03d bcdc 51bc
00000010: ce59 34be 2aa2 413e 772d c4bd
