university_admission_chatbox_project_backend/data.pth (torch, 5247 bytes, 6 tensors)

l1.weight f4 [8, 60]
00000000: 8847 343d 2205 5a3e 80e4 5ebb 45fc 323f
00000010: c02b c13d c172 d13e 3881 7cbe e47e bebe
00000020: 25d5 de3e f340 1d3d 51a5 d23e bb66 143e
00000030: 1cba d13e ae1a b83e 4388 1b3f f818 babd
00000040: 4e45 b13e eb23 183e f97c bebe 4177 8f3e
00000050: 5263 b83e 6642 983e e634 8b3e 0c55 093e
00000060: 7225 653e a0dc da3e 2398 943c 5cfb 8bbe
00000070: 66d4 28be 5291 03be 9f45 d93e 11ad 2bbd
00000080: 99d1 7d3e 7c50 91bd a0d0 bd3e 4cd0 643e
00000090: bfe1 dc3e c89f d8be 7cf8 043f d39f debe
000000a0: d8ec 0b3f 8977 d23e 9173 c1bc d003 c13e
000000b0: 93a3 803e 9a77 f4bc 3c8f 59be 19e6 be3e
000000c0: 5658 40be c9b2 a63e 5587 e63e 2536 ce3e
000000d0: 7d16 793e 2060 353d 7173 a4be 5697 bebd
000000e0: 48eb e23e 6f64 8d3e eccc 9ebe 118d 61be
000000f0: bb87 0c3f 32df 933e e36c fbbc 3bdc e53d
00000100: bb0b 96be b350 eabe f3af 03be c114 983e
00000110: 10ac 89bd 54db 65be 3431 053f 5c58 15bc
00000120: 6ce1 073f dc5e 743d aa62 b53c 7a15 f5bb
00000130: f9ee 9a3e 5981 b0be 4e86 bf3e c1b6 11bf
00000140: 1797 983e e0c2 11bf 8eb5 11bf f5c7 2dbe
00000150: f808 633e bb81 d53c dd87 acbd 1b23 2cbe
00000160: 652f 90be f30f fb3d 6dcd 223f 6d6f d73e
00000170: 3525 8b3c 695b df3c f99d 8e3e 6065 133d
00000180: 7806 623e c86d 923d 2b41 cb3d 4e25 d4bd
00000190: baf5 bfbd 3181 003e c5cd 283e 2956 ba3e
000001a0: b3bc c5bd 2640 7c3b d64f d2bc 1da3 0f3f
000001b0: fb5f 893d 5c73 27bd 1103 473f 8922 ca3e
000001c0: a387 b93c a280 44be 3a0f 813c ca0e 15be
000001d0: 4b45 7f3d b1d5 cf3e 9054 ce3d 98a8 7f3e
000001e0: 89a1 f53e 4b5e 62bd 19f4 cfbe 75d8 e2bc
000001f0: 2d00 bc3e d254 a43e c830 89bd c7da ebbe
00000200: beb1 9e3d 7763 023f 7054 243e b5f7 1ebe
00000210: 9c17 a7bd 0246 373e 0935 77bd b8b6 cabd
00000220: a760 b53e fc76 013f 6b4a 0bbf eb47 383f
00000230: d7a5 7e3e 1059 293f 5494 053f 8174 043f
00000240: 8312 8b3e 7e9b 483c f3ea 033f ebee c4be
00000250: 871c 9bbe e57a bbbe aaf4 9ebb 09fb bb3e
00000260: 531c cc3d 794e 91be 8689 2f3e 7e1f 83bc
00000270: 57c4 9d3b c463 82be 39fb 623d 246a 82be
00000280: 0f5b afbd f7a0 ef3d 6996 c7be 64a7 52bd
00000290: f744 a1bd eca8 51be 9d72 2f3d 5fcb aabd
000002a0: f6ee dfbd bf5f a0bd e04d 2c3f 39c4 7a3e
000002b0: 8265 75bc 91b8 1e3d 406c f6bc 417b cabe
000002c0: 628b ab3c d0b4 463e 5330 55bd 6fb4 4d3e
000002d0: a348 85be 1e1f a1be 41a3 d13d 86f9 8bbd
000002e0: bd91 c33e dcbc a53e 705d 0e3e 3252 ecbe
000002f0: 2d85 20bc 7915 ab3e ba3d fe3e 856a d73d
00000300: 9b40 bb3e 4ac5 99bd da1d 0c3e 4546 f1bd
00000310: 545b 953e 219f f93e c9ac d5be 67d4 173f
00000320: adf1 9dbd 74aa 103f 6092 2d3f c323 113f
00000330: c355 813e 2c9d 9fbd 39d3 a53e 60c7 23be
00000340: b0d0 d4bd de94 6abe fb41 023f 75a4 903d
00000350: 194e 493e 8c10 f1bd a5cd d33e b229 bd3c
00000360: e0d3 dfbd 7b86 15bd f235 c0bd 74e3 d4bc
00000370: cdfb 4ebd a1e4 e53d 3968 5ebe 6e9d b53e
00000380: 996a 6d3e 2b9a 66be 51b6 173d 3bee 923e
00000390: cc7b 6fbd 0f1d 413e 6bd5 04bf f4f1 39be
000003a0: 8b3f 0f3e d6fd e03e 5e18 cb3d 18e9 f33d
000003b0: 16c0 953d 3ee9 f53e 3d13 3b3e d035 3dbd
000003c0: 03b7 e23e e657 ab3e b22d b0be 5b28 58bb
000003d0: 9a13 563e 2055 e9bd 0474 803d 8af3 2d3d
000003e0: 8580 8c3c a4c2 583e 574e 6cbe 59c6 91bd
000003f0: f2db a2be 2d7d aabc b42f acbd 1710 0a3e
0.04401353 0.2129102 -0.0034010708 0.6991618 0.09432173 0.40907863 -0.24658668 -0.37206185
0.4352199 0.03839202 0.4114175 0.14492314 0.40962303 0.35957855 0.60754794 -0.09086794
0.34623188 0.14857452 -0.37204722 0.2802067 0.36013275 0.29738158 0.27188796 0.13411349
0.22377566 0.4274645 0.01813895 -0.2734021 -0.16487274 -0.12848404 0.4243593 -0.041913096
0.24786986 -0.07095429 0.3707323 0.22345084 0.4314098 -0.42309403 0.5194166 -0.4348131
0.5465827 0.41106823 -0.023614677 0.3769822 0.25124797 -0.029842187 -0.21246046 0.37284926
-0.18783697 0.32558277 0.45025125 0.40275684 0.24324985 0.044281125 -0.32119325 -0.09306209
0.4432013 0.27615687 -0.31015718 -0.22026469 0.5489461 0.28881222 -0.03069157 0.11223646
-0.29305825 -0.45764694 -0.12860088 0.29703334 -0.067222714 -0.22446948 0.52028203 -0.009115305
0.5307834 0.059660777 0.022141773 -0.007479367 0.30260447 -0.34473684 0.37407154 -0.56919485
0.29802772 -0.5693798 -0.56917655 -0.16970809 0.2217139 0.026062837 -0.08424351 -0.16810267
-0.2816116 0.122589014 0.63594705 0.420772 0.016985515 0.027265267 0.278549 0.03598535
0.2207278 0.07149845 0.09924539 -0.10358678 -0.093730405 0.12549283 0.16484745 0.3639386
-0.09655132 0.0038490384 -0.025672834 0.56108266 0.0670776 -0.0408815 0.77739054 0.39479473
0.022647684 -0.19189695 0.01575433 -0.14556423 0.062321942 0.4059272 0.10074723 0.24966657
0.47974804 -0.055265706 -0.4061592 -0.027691105 0.36718884 0.32095963 -0.066987574 -0.4606535
0.077487454 0.5093302 0.16047835 -0.1552418 -0.081588 0.178978 -0.060353313 -0.09898132
0.35425302 0.5057218 -0.5441043 0.7198474 0.2486795 0.66151524 0.52179456 0.5174027
0.2716256 0.0122441035 0.5153038 -0.3846353 -0.30295202 -0.366172 -0.0048509436 0.36714962
0.0996634 -0.28380182 0.17142305 -0.016006228 0.0048146653 -0.2546674 0.055415366 -0.25471604
-0.0856229 0.117006235 -0.3898194 -0.051429167 -0.07874482 -0.20474595 0.042833913 -0.08339571
-0.1093425 -0.07830762 0.6730633 0.24488916 -0.014977815 0.038750235 -0.030080914 -0.3954716
0.020940486 0.19404912 -0.05204804 0.20088361 -0.2603198 -0.31469053 0.10236216 -0.06834702
0.38197127 0.3237065 0.13902831 -0.4615646 -0.009797377 0.3341482 0.4965647 0.10518364
0.36572728 -0.07508333 0.13683262 -0.11780981 0.2917124 0.48754218 -0.41733387 0.59308475
-0.077121116 0.5651009 0.67801476 0.56695193 0.25260743 -0.0779365 0.32387713 -0.15994024
-0.103913665 -0.22908351 0.5088193 0.07062618 0.19658698 -0.11770734 0.41367832 0.023091171
-0.10929084 -0.036505204 -0.09385289 -0.025987364 -0.050533105 0.11225248 -0.21719445 0.35471672
0.23185195 -0.22519748 0.037039105 0.2869738 -0.05846767 0.18858741 -0.5188815 -0.18158704
0.13989083 0.4394366 0.09916757 0.119096935 0.07312028 0.48029512 0.18269058 -0.046193898
0.44280252 0.334655 -0.34409863 -0.0032983038 0.20905915 -0.113931894 0.06272128 0.042468585
0.017151127 0.21168 -0.2307676 -0.0711791 -0.3180843 -0.020811642 -0.08407536 0.134827

l1.bias f4 [8]
00000000: 3076 be3e 3fb9 113f 3052 323f 09e2 043f
00000010: d868 683f 9970 ef3e 9e0a 7e3f 801a a33e
0.37199545 0.5692329 0.6965666 0.519074 0.9078498 0.46765593 0.9923495 0.31856155

l2.weight f4 [8, 8]
00000000: ee82 3a3e 8fb4 afbe ac03 a33c acc2 a93d
00000010: 0215 b0be 4df3 8cbe 7613 903d 146a e1bd
00000020: c6d5 443d f9fc 8e3f 05bf 913f 8a46 8e3e
00000030: 0f8b 1c3f d122 59bf 128f 4b3f 08ec b0bd
00000040: 5fb2 543f 6b9e 353d 29dd 88be 2e8e 2d3f
00000050: 739c c9be 3ce7 863f 798a 35be b3dc 6d3f
00000060: 8cc8 57bf fe68 943f b4a2 2bbf 4f79 c1bf
00000070: 2df4 663f b700 883f 3bc7 413f f5d3 163e
00000080: 7ba1 9f3e 0d29 71bf 0e61 443f d669 813f
00000090: 1194 233e 907f 2dbf 5fd3 003f b045 cbbe
000000a0: 32ac 553f 9bce 753f 95a3 3e3f aa22 3e3d
000000b0: 23a3 a0be 3f82 2c3d f3a1 7ebe 7b2d 893f
000000c0: e074 b7be ffcd 543e 60d8 fc3c deb2 713f
000000d0: 57b1 38bf 1ec6 2f3e 55eb b73f 0da3 933c
000000e0: 6639 b33d 0e3f 31be 3f4a 6e3f 2164 b93d
000000f0: ce98 8e3f bb5f 38bf 833f a43c 0b67 e7be
0.18214008 -0.34317443 0.019899212 0.08289084 -0.34391028 -0.27529374 0.07034962 -0.11006561
0.048055433 1.1170951 1.138642 0.27788192 0.61149687 -0.8481875 0.7951518 -0.086387694
0.8308467 0.044340532 -0.26731232 0.67795074 -0.39377174 1.0539317 -0.17728604 0.92914885
-0.84290385 1.1594541 -0.6704514 -1.5115145 0.9021633 1.0625218 0.75694627 0.14729293
0.31177887 -0.94203264 0.76710594 1.0110424 0.15974452 -0.6777277 0.50322527 -0.39701605
0.83465874 0.9601838 0.74468356 0.046419777 -0.31374463 0.0421164 -0.24866466 1.0717005
-0.35831356 0.20781706 0.030864894 0.94413555 -0.721456 0.1716542 1.4368693 0.018022085
0.08751182 -0.1730921 0.9308204 0.09052301 1.1140382 -0.72021073 0.020049816 -0.45195803

l2.bias f4 [8]
00000000: 4312 9dbe f06b b13d ad1b e8bd 1fd6 7a3f
00000010: fc1d 9e3d f3f1 9ebe b376 693e 39f6 553d
-0.30677995 0.086631656 -0.11333404 0.9798297 0.07720563 -0.31043968 0.22799186 0.05223677

l3.weight f4 [7, 8]
00000000: 1a93 acbe 06ee 0ebf b7c6 403f 4b0d 44bf
00000010: 825a 0ebf 1629 f73e 26a2 5dbf 96f5 02bf
00000020: 393f a8bd 8b42 cc3e 4ece 973b 2beb 88bf
00000030: 3162 103e 192f b13d 2590 aa3e 24a2 9ebf
00000040: 8174 1ebe 8745 aebf 148b 933d 3821 973f
00000050: 1eed 51bf 1875 51bf 9560 9ebf 93d7 b5bf
00000060: 7d30 c03b 95e1 f43e a557 adbf 027a 2e3f
00000070: 8f39 17bf ed5b c0bf 236a 3b3f df84 00bf
00000080: 9769 b1be bce3 ed3e 5c66 8dbf fb98 5bbf
00000090: ed74 943f 12fd 2ebf f683 ed3d 5e5d 203f
000000a0: 854b a6bd 5010 81bf 14a7 1d3e 01f7 0cbd
000000b0: 44f1 05bf 3f44 0dbe 3b80 3f3f 5842 80bf
000000c0: d3cc aa3e fda9 313f 40a1 65bf 6d29 74bd
000000d0: 0e84 48bf 39be 1d3f 2ef9 9fbf 1e8b 133f
-0.3370598 -0.55831945 0.75303215 -0.76582783 -0.55606854 0.48273534 -0.86575544 -0.51155984
-0.08215184 0.39894518 0.0046327477 -1.0696768 0.14099957 0.08651561 0.333131 -1.2393231
-0.1547413 -1.3614968 0.072042614 1.1807013 -0.8200244 -0.81819296 -1.2373224 -1.4206413
0.0058651553 0.47828355 -1.3542372 0.6815492 -0.590722 -1.5028054 0.73208827 -0.50202745
-0.3465087 0.4646281 -1.1046863 -0.85780305 1.1598183 -0.68354905 0.11597435 0.6264247
-0.08119873 -1.0083103 0.15395766 -0.03441525 -0.5232127 -0.13795565 0.7480504 -1.0020247
0.33359393 0.69400007 -0.8969917 -0.05960982 -0.783265 0.6161838 -1.2497919 0.5763415

l3.bias f4 [7]
00000000: c2f9 2dbe fe56 debd 710a 3d3e eeea 123d
00000010: 8e22 c13e d0f4 37bd 48c2 e3bb
-0.16989806 -0.10856436 0.18461014 0.035868578 0.37721676 -0.044911206 -0.0069506504
